Lab 7 - Neural Networks/myNet.pt (torch, 47751 bytes, 9 tensors)

hidden1.weight f4 [128, 2]
0	0xbe8f99aa	-0.28046924
1	0x3e77b47e	0.24189946
2	0x3e14af4f	0.1452
3	0x3e9c7901	0.3056107
4	0xbd8827bb	-0.06648203
5	0x3e751dca	0.23937145
6	0xbf1cd5b9	-0.61263615
7	0xbdc121a7	-0.09430247
8	0x3f1b7cbb	0.607372
9	0xbeb044fe	-0.34427637
10	0xbd17e369	-0.03708211
11	0x3e9f27b2	0.31084973
12	0xbd0a4ef0	-0.033766687
13	0x3ece6be6	0.40316695
14	0xbee52c67	-0.4476044
15	0x3f0b45f3	0.5440361
16	0xbe9b4bb2	-0.30331188
17	0xbf2d0e8d	-0.6760033
18	0x3efb3e49	0.49070957
19	0x3f14d74b	0.5814101
20	0xbf06c008	-0.52636766
21	0xbdb872b7	-0.09006255
22	0xbf10f754	-0.5662739
23	0xbed99d89	-0.42503002
24	0xbecd8b0e	-0.40145153
25	0xbea091f9	-0.31361368
26	0x3ef45670	0.47722197
27	0xbf0861c5	-0.53274184
28	0xbe9e40e4	-0.30908883
29	0xbdef7353	-0.11691918
30	0xbe566544	-0.20937067
31	0x3f1e66ce	0.6187562
32	0xbe06893a	-0.13138285
33	0x3e219971	0.1578119
34	0x3e4edc36	0.20201191
35	0x3c87b334	0.016564943
36	0x3e24994a	0.160741
37	0x3edf36d4	0.43596518
38	0x3ec6d7d4	0.3883654
39	0x3e8ee792	0.2791105
40	0x3dc39ade	0.09551023
41	0xbe8fc063	-0.28076467
42	0xbdd653c0	-0.10465193
43	0xbf2680ab	-0.6504008
44	0x3f0b8040	0.5449257
45	0x3dc32a48	0.09529549
46	0xbd523d5c	-0.051328048
47	0x3ee9b38c	0.45644796
48	0x3ea766b9	0.3269556
49	0x3ef2c527	0.4741604
50	0xbeb37ccd	-0.35056153
51	0x3ed074e3	0.40714177
52	0xbf22b9ab	-0.63564557
53	0x3f25b150	0.6472368
54	0xbede088d	-0.433659
55	0xbec0be49	-0.37645176
56	0x3e896a81	0.2683907
57	0xbe4ce9ed	-0.2001111
58	0xbedbcf10	-0.42931414
59	0x3d3977ea	0.045280375
60	0x3ee851f5	0.45375028
61	0xbdee7794	-0.116439015
62	0xbbab9e67	-0.005237389
63	0x3df38667	0.118908696
64	0xbf11ce8e	-0.569558
65	0xbe1c98af	-0.15292619
66	0xbef52358	-0.47878528
67	0xbe696859	-0.22793712
68	0xbe0331c6	-0.12811956
69	0xbf03623d	-0.51321775
70	0x3f0558f0	0.5208883
71	0x3e822a25	0.2542278
72	0xbe6429ec	-0.22281617
73	0x3e48781c	0.19577068
74	0x3e2049d4	0.15653163
75	0x3f317b85	0.693291
76	0x3e97e66d	0.29667988
77	0xbf07120d	-0.5276192
78	0xbf103185	-0.5632556
79	0xbe8e6fdc	-0.27819717
80	0xbe647d38	-0.22313392
81	0xbf19e1b9	-0.6011005
82	0x3ebfc2f9	0.3745344
83	0xbeb16f60	-0.34655285
84	0x3e374a6e	0.17899486
85	0xbde9c207	-0.11413961
86	0xbec2b959	-0.38032034
87	0xbe0cce49	-0.13750567
88	0xbddada91	-0.106862195
89	0x3ead3d81	0.33835986
90	0xbf28cb05	-0.65934783
91	0xbdef9c31	-0.11699713
92	0xbdebb35c	-0.115088195
93	0x3dc0d2c1	0.09415198
94	0x3c4f6875	0.012659182
95	0xbd71f390	-0.05907017
96	0xbee4c7b1	-0.44683602
97	0xbd662aaf	-0.05619305
98	0x3f1e3209	0.617951
99	0xbea32b18	-0.31868815
100	0x3ede59d0	0.43427896
101	0x3e2f7301	0.17133714
102	0xbecb4efe	-0.39708704
103	0xbe8cba7c	-0.27486026
104	0xbe142f73	-0.14471225
105	0x3f01ca40	0.50699234
106	0xbeeb71be	-0.45985216
107	0x3ede4c65	0.4341766
108	0xbd407827	-0.046989586
109	0xbd5269d2	-0.05137045
110	0x3da9b716	0.08286874
111	0x3f0b8fa6	0.54516065
112	0x3e571fae	0.21008179
113	0x3e5c979d	0.21542211
114	0x3ee0a653	0.43876895
115	0xbebe018f	-0.37110564
116	0x3f1e5e68	0.618628
117	0xbdd5ae61	-0.10433651
118	0xbefea5b7	-0.49735805
119	0xbe98aa88	-0.29817605
120	0x3e23af20	0.15984774
121	0x3f1c8da2	0.61153615
122	0x3efe8576	0.49711198
123	0x3e1ddd5b	0.15416472
124	0x3df96cc8	0.121789515
125	0xbf179af6	-0.59220827
126	0x3d16b5c5	0.036794443
127	0x3ee9ccc1	0.45664027
128	0x3ec9f34f	0.39443442
129	0x3d96dd7e	0.07366465
130	0x3d511bd7	0.05105194
131	0x3e8aed6d	0.27134266
132	0x3eca8b6e	0.395595
133	0x3ee35b95	0.4440581
134	0xbea82121	-0.32837775
135	0x3e83d245	0.2574636
136	0xbcd7a024	-0.026321478
137	0x3c451a18	0.012030147
138	0xbe91698d	-0.2840084
139	0xbe1f5c3a	-0.15562525
140	0xbe9cd031	-0.30627587
141	0x3ef9ddee	0.4880213
142	0x3ea00ebb	0.31261238
143	0x3f1ca9c1	0.61196524
144	0xbf22a326	-0.63530195
145	0xbf035328	-0.5129876
146	0xbe948dbf	-0.29014394
147	0x3c195b5e	0.009360163
148	0x3f23c0ec	0.6396625
149	0xbeec4768	-0.4614823
150	0x3db081bf	0.08618497
151	0x3f2f9ddb	0.68600243
152	0xbe8eeb34	-0.2791382
153	0x3e2ac9d1	0.1667855
154	0xbe4fabf3	-0.20280437
155	0x3e2143ad	0.15748473
156	0xbd9bcb78	-0.07607168
157	0x3dacb470	0.08432853
158	0x3db9e24d	0.090763666
159	0xbd58bd40	-0.052914858
160	0x3f254098	0.6455169
161	0xbf251efb	-0.645004
162	0xbf11bc32	-0.5692779
163	0x3ed71a02	0.4201203
164	0xbf27b175	-0.6550515
165	0xbf1ac6d7	-0.60459656
166	0xbed53253	-0.41639957
167	0x3da395ef	0.07987582
168	0x3ebfcaa9	0.37459305
169	0x3e0d3b74	0.13792211
170	0xbe3b4be2	-0.18290666
171	0xbdac17e7	-0.084029965
172	0x3ef68573	0.4814869
173	0xbe2d487e	-0.16922185
174	0xbef353ed	-0.47524968
175	0x3f014c53	0.50507087
176	0xbef62680	-0.48076248
177	0x3eaee962	0.34162432
178	0xbf086d9a	-0.5329224
179	0xbeabe8a7	-0.33575937
180	0xbf2bdf28	-0.67137384
181	0x3e34043b	0.17579739
182	0x3f368159	0.7129112
183	0xbe5089f8	-0.20365131
184	0xbe6d6ba8	-0.23185599
185	0x3f035a7d	0.5130995
186	0xbe16ef01	-0.1473961
187	0xbee3194e	-0.44355243
188	0x3ea92084	0.3303262
189	0x3f0fac5b	0.5612237
190	0xbea927da	-0.33038217
191	0x3ec656b1	0.38738015
192	0x3f23da35	0.6400483
193	0xbd84a82c	-0.06477389
194	0xbef01138	-0.46888137
195	0x3e842594	0.2580992
196	0x3f166a63	0.58756083
197	0xbec22725	-0.3792049
198	0x3ee17b71	0.4403949
199	0xbe9416fb	-0.28923783
200	0x3f19e60f	0.60116667
201	0x3df3eefc	0.11910817
202	0xbeabd94b	-0.3356422
203	0xbeff4dc1	-0.4986401
204	0xbf091fc2	-0.53564084
205	0xbe1d18f2	-0.15341547
206	0x3c8d0a09	0.0172167
207	0xbe3bfe1a	-0.18358651
208	0xbe55393f	-0.20822619
209	0xbd8458f8	-0.06462282
210	0x3ca6753b	0.020319572
211	0xbed44cab	-0.41464743
212	0xbc981c5e	-0.018568214
213	0x3e014577	0.12624155
214	0x3f24efde	0.6442851
215	0x3f14e8f5	0.58167964
216	0x3eba64f4	0.36405146
217	0xbe44266c	-0.19155282
218	0xbe814613	-0.25248775
219	0xbe54ba21	-0.20774128
220	0x3d9d1981	0.0767088
221	0xbf2def5a	-0.67943347
222	0xbeb9e047	-0.36303923
223	0x3ea72c52	0.32651
224	0xbd73e335	-0.059542853
225	0x3f2155fe	0.6302184
226	0x3e3164cf	0.17323612
227	0xbd8c0e33	-0.06838646
228	0x3ed7f170	0.4217639
229	0x3eecb768	0.46233678
230	0xbeb45fdb	-0.35229382
231	0x3eb33759	0.35003164
232	0x3e066d53	0.13127641
233	0xbf01ff0f	-0.50779814
234	0xbdbe5e57	-0.09295338
235	0x3f20ddd6	0.62838495
236	0x3e2e37b5	0.17013438
237	0x3d6b34f9	0.057423566
238	0xbe192bce	-0.14958116
239	0xbf0c67ab	-0.54845685
240	0xbe1f4b63	-0.15556102
241	0x3f296353	0.6616718
242	0x3f0f67fb	0.56018037
243	0x3e521afa	0.20518103
244	0x3f22a1aa	0.6352793
245	0xbd980642	-0.074230686
246	0xbebccebd	-0.3687648
247	0x3eb20c02	0.34774786
248	0xbe246dc1	-0.16057493
249	0x3ee10244	0.4394704
250	0xbf24e66e	-0.6441411
251	0xbe713326	-0.23554668
252	0xbf215d6e	-0.6303319
253	0xbe97795c	-0.29584777
254	0x3e718fb0	0.23589969
255	0x3f203194	0.6257565

hidden1.bias f4 [128]
0	0x3dee0deb	0.116237484
1	0x3f056fb8	0.52123594
2	0x3f3a11f4	0.72683644
3	0x3e4650f4	0.19366819
4	0x3ed66ff7	0.41882297
5	0x3f25243b	0.6450841
6	0x3eff00d4	0.4980532
7	0x3e5c0467	0.21486054
8	0xbe7614f7	-0.24031435
9	0x3cb0831f	0.021546898
10	0x3f3a690d	0.72816545
11	0x3eaffc65	0.3437225
12	0x3ee95a13	0.45576534
13	0x3e3525d9	0.17690219
14	0x3a4156c6	0.0007375296
15	0xbf1bb867	-0.6082825
16	0xbe9c6ee3	-0.3055335
17	0xbf2c1da4	-0.6723273
18	0x3f38613d	0.72023374
19	0xbeb40a40	-0.3516407
20	0xbf3b9dd8	-0.73287725
21	0x3f24914a	0.64284194
22	0xbf29a6f9	-0.66270405
23	0xbed64aa0	-0.4185381
24	0xbdba19c4	-0.09086946
25	0x3efddfed	0.49584904
26	0xbe2c9db5	-0.16857035
27	0x3ee5a198	0.4484985
28	0x3eff32cb	0.4984344
29	0x3ec2b72a	0.38030368
30	0x3f0a6b25	0.5406974
31	0xbecfe768	-0.40606236
32	0xbf02ff36	-0.5117067
33	0xbe7cc9f0	-0.24686408
34	0x3ead1def	0.338119
35	0xbd5184a3	-0.051151883
36	0xbf240bd1	-0.6408053
37	0xbf2934f2	-0.66096413
38	0xbefbfc95	-0.49216142
39	0x3eb4e6eb	0.35332426
40	0x3f054d8a	0.5207144
41	0xbf2e1504	-0.6800082
42	0xbdfae991	-0.122515805
43	0x3f13b82b	0.57702893
44	0x3f001493	0.50031394
45	0xbebc74e5	-0.36807933
46	0x3f183878	0.59461164
47	0x3c8c772d	0.017146671
48	0x3e81bb34	0.25338137
49	0xbefdea4e	-0.49592823
50	0xbf14da12	-0.5814525
51	0x3ebfbea8	0.37450147
52	0xbed46002	-0.41479498
53	0x3f2fed0e	0.6872109
54	0x3f465f22	0.7748891
55	0x3f356491	0.7085658
56	0xbeedd938	-0.46454787
57	0x3d20686a	0.039162077
58	0x3e719a8b	0.2359411
59	0xbefa1378	-0.48842978
60	0x3ef6df61	0.482173
61	0x3f040094	0.5156338
62	0xbe316d1a	-0.17326775
63	0x3f1b734f	0.6072282
64	0xbf2c33b6	-0.67266405
65	0x3d3df07e	0.04637193
66	0x3ede8192	0.4345823
67	0x3ee0ea3d	0.4392871
68	0x3f294301	0.66117865
69	0x3cecfb90	0.028928548
70	0xbe07e8f7	-0.13272463
71	0x3d6780bc	0.056519255
72	0x3ec05095	0.3756148
73	0x3f09761e	0.5369586
74	0xbd1e0bc8	-0.038585454
75	0xbea19968	-0.31562352
76	0xbd076f8c	-0.033065364
77	0xbf2e0eaf	-0.67991155
78	0x3e7246e1	0.2365985
79	0x3eac3ba4	0.33639252
80	0xbe7e0442	-0.24806312
81	0x3f104526	0.5635551
82	0x3e565f3c	0.20934767
83	0x3ef4da50	0.4782281
84	0xbf346126	-0.70460737
85	0xbf22069e	-0.6329135
86	0xbf1d27f6	-0.613891
87	0xbecb1498	-0.3966415
88	0xbf15544a	-0.5833174
89	0xbf083d07	-0.5321812
90	0xbd9ff161	-0.07809711
91	0x3e5b8f64	0.21441418
92	0x3ee71558	0.4513347
93	0x3eb1b987	0.3471186
94	0x3e86792b	0.2626432
95	0x3d179425	0.037006516
96	0xbdcec430	-0.100960135
97	0xbe98347b	-0.2972754
98	0x3e4aca0a	0.19803634
99	0x3dc92458	0.09821385
100	0xbe9f20bf	-0.3107967
101	0xbf0cbb7c	-0.5497358
102	0xbf2a959f	-0.66634554
103	0xbef0d81c	-0.47039878
104	0x3dbdb352	0.09262718
105	0x3f3c798a	0.73622954
106	0x3f00312d	0.50075036
107	0x3f24b3a2	0.643366
108	0x3dfb70f7	0.12277406
109	0xbe923968	-0.28559422
110	0x3e9b894d	0.3037819
111	0x3e8c92cc	0.27455747
112	0x3f31f6e2	0.6951734
113	0xbf16be41	-0.58884054
114	0x3ee717cc	0.45135343
115	0x3f15fbce	0.5858735
116	0xbf2afa9d	-0.66788656
117	0x3ec07995	0.3759276
118	0xbf2eac11	-0.682313
119	0x3f488f18	0.78343344
120	0x3f216851	0.630498
121	0x3f1e8647	0.6192364
122	0xbe3ae55a	-0.18251553
123	0xbf2f21c8	-0.6841092
124	0x3eebc1b1	0.46046212
125	0xbf06456f	-0.524497
126	0x3e039dcd	0.12853165
127	0xbf0a35a6	-0.5398811

hidden2.weight f4 [64, 128]
0	0x3cc49a3e	0.02399933
1	0xbcde8927	-0.027165009
2	0x3b87a8f5	0.0041400143
3	0x3ca066f6	0.019580346
4	0xbd9a1787	-0.07524019
5	0xbdabc55f	-0.08387255
6	0xbd83feb6	-0.06445067
7	0xbd7931eb	-0.06083862
8	0xbbe9f92d	-0.0071403
9	0xbc416c60	-0.011805624
10	0x3cca3075	0.02468131
11	0xbc6257c8	-0.013814874
12	0xbd9ab7b7	-0.07554572
13	0x3d914b99	0.07094497
14	0x3d96980e	0.07353221
15	0xbd400890	-0.046883166
16	0xbc484858	-0.012224279
17	0x3c7d896a	0.015474657
18	0x3b9035d3	0.0044009476
19	0xbdac315e	-0.084078535
20	0xbd849001	-0.06472779
21	0x3d862df8	0.065517366
22	0x3cfce6a5	0.030871699
23	0x3cec863c	0.028872602
24	0x3cf88c24	0.030340262
25	0xbdaa79f7	-0.08324044
26	0xbcee2846	-0.029071938
27	0x3d550d13	0.05201442
28	0x3ce032e9	0.027368026
29	0xbda1e92a	-0.07905801
30	0xbb1ec78a	-0.0024227821
31	0xbc967384	-0.018365629
32	0xbccbdce7	-0.024885608
33	0xba99301e	-0.0011687314
34	0xbd23e375	-0.04001184
35	0xbd0a57f2	-0.033775277
36	0x3bf10956	0.0073558493
37	0xbda07f4c	-0.0783678
38	0x3d6d4651	0.057928387
39	0x3d2f3ae7	0.042780783
40	0x3d92fbf8	0.071769655
41	0x3d46cf1c	0.04853736
42	0xbcb86e5d	-0.022513563
43	0x3d606696	0.054785334
44	0x3d18e7e1	0.037330512
45	0x3d20931d	0.0392028
46	0x3bf9e2fa	0.0076259347
47	0x3cf37d55	0.029722849
48	0x3cf9b106	0.03047992
49	0x3ca9cb56	0.020726841
50	0x3d4bfc2e	0.049801044
51	0xbd777f94	-0.060424402
52	0x3db1a380	0.08673763
53	0x3da70232	0.081547156
54	0x3db88244	0.09009221
55	0x3d760a8c	0.060068652
56	0x3d35f602	0.044424064
57	0xbcbed14b	-0.023293158
58	0xbd452969	-0.048135195
59	0xbd24e0f3	-0.04025359
60	0x3cc929cf	0.024556069
61	0x3d60bc13	0.05486686
62	0xbd9e1ce5	-0.07720355
63	0xbd6b6049	-0.05746487
64	0xbd87a041	-0.06622363
65	0x3d165187	0.036698844
66	0x3d2871d9	0.0411242
67	0xbd393c27	-0.04522338
68	0xbce1a081	-0.027542355
69	0x3c939540	0.018015504
70	0x3d02cff3	0.031936597
71	0xbd7b7b7f	-0.061397072
72	0x3db58972	0.08864106
73	0x3d85e67c	0.06538102
74	0xbd46c36b	-0.04852621
75	0xbd80f812	-0.06297316
76	0xbd46bae8	-0.04851809
77	0xbd185757	-0.03719267
78	0x3d1f78b4	0.03893347
79	0xbd8ee7e4	-0.069778234
80	0xbcb55d04	-0.02213908
81	0xbdacefa6	-0.08444147
82	0x3da59041	0.08084155
83	0xbcbc6295	-0.022996226
84	0xbb4a99e0	-0.003091447
85	0xbc8adfc7	-0.016952408
86	0x3b3adad5	0.0028511782
87	0xbb1928cb	-0.0023370262
88	0xbd9b4653	-0.07581773
89	0xbd737334	-0.059436038
90	0xbd00aeb7	-0.03141662
91	0x3d283fcd	0.04107647
92	0x3d74d2e1	0.059771422
93	0x3cd3c7d0	0.025852114
94	0xbd499934	-0.04921837
95	0x3d90ab68	0.07063943
96	0xbc3d25d9	-0.011544668
97	0xbdaf9249	-0.085728236
98	0xbd9a75df	-0.075420134
99	0x3d0c3d22	0.03423799
100	0xbd5dd71b	-0.05416022
101	0xbd7264ee	-0.059178285
102	0x3ce4b0a5	0.027916262
103	0xbb545be7	-0.003240341
104	0x3d429d70	0.047513425
105	0x3da0d9fa	0.07854076
106	0xbacc9a9a	-0.001561004
107	0xbd8b29be	-0.06795071
108	0xbd3a8a2a	-0.04554192
109	0xbd735fce	-0.05941754
110	0xbc84d383	-0.016214138
111	0xbd0566b8	-0.032568663
112	0x3bf2facb	0.0074151508
113	0xbd9b2a9a	-0.07576485
114	0xbbea1ec4	-0.007144781
115	0x3d1e9720	0.038718343
116	0x3d4093fb	0.047016125
117	0xbda35d2d	-0.07976756
118	0xbc31d578	-0.010854118
119	0xbca94855	-0.020664373
120	0x3c84831b	0.016175797
121	0xbca6e73e	-0.020373937
122	0x3b37a082	0.0028019254
123	0xbb2cef29	-0.0026387668
124	0xbd1aa214	-0.037752226
125	0xbd98e24b	-0.07465037
126	0xbd0e40de	-0.03472983
127	0xbcbb8e68	-0.022895053
128	0x3d9be569	0.07612116
129	0x3d7b26b9	0.061316226
130	0x3e01c392	0.1267226
131	0x3db34e79	0.08755202
132	0x3d18e1ef	0.037324842
133	0x3c18d7fe	0.00932884
134	0x3cd705e7	0.026247932
135	0x3db8d15f	0.09024309
136	0xbd6d6f94	-0.057967737
137	0xbd9c4ae0	-0.07631469
138	0x3d904eb6	0.07046263
139	0x3d0be588	0.034154445
140	0x3dc6d1c0	0.097079754
141	0x3dec4b41	0.11537791
142	0xbdb32bd9	-0.08748598
143	0xb9cf8e54	-0.0003958816
144	0xbdddf332	-0.108374014
145	0xbdfd1609	-0.123577185
146	0x3e1601a1	0.14649059
147	0xbdab1832	-0.08354224
148	0xbde732d3	-0.11288991
149	0xbc854aab	-0.016270956
150	0xbdf281fb	-0.11841198
151	0xbd01b383	-0.031665336
152	0x3d0ac6de	0.03388106
153	0x3e07437d	0.13209338
154	0x3d5d91bb	0.054094058
155	0x3d8330d4	0.064057976
156	0x3ce1a4aa	0.027544338
157	0x3de392e5	0.11112002
158	0x3d4e9426	0.050434254
159	0xbc88cecb	-0.01670017
160	0xbd6f8014	-0.058471754
161	0xbd9ae09d	-0.07562373
162	0xbda52be2	-0.080650106
163	0xbdadd32c	-0.084875435
164	0xbd54c5d8	-0.05194649
165	0xbdcec80b	-0.10096749
166	0xbdb94d1c	-0.090479106
167	0xbb96eee1	-0.0046061133
168	0xbd8d5fbc	-0.069030255
169	0x3b3fc7a4	0.0029263282
170	0x3d4284f6	0.047490083
171	0x3d976886	0.07392983
172	0xbcc75355	-0.024331728
173	0xba66b309	-0.0008800482
174	0x3e06d334	0.13166505
175	0x3da00f00	0.07815361
176	0xbcd3639b	-0.025804332
177	0xbe0ab948	-0.13547242
178	0xbd5dca8b	-0.05414824
179	0xbc2e38ce	-0.0106336605
180	0xbde737fd	-0.11289976
181	0x3ddef9e2	0.10887505
182	0x3d8181ea	0.06323607
183	0x3d6eefdc	0.058334216
184	0xbda3b1fe	-0.07992934
185	0xbd4c873d	-0.04993366
186	0x3dcb3394	0.09921947
187	0xbd78eafd	-0.060770977
188	0x3da5f7a9	0.08103878
189	0x3dddf9ad	0.108386375
190	0x3aebaac2	0.0017979967
191	0x3dd4ec54	0.103966385
192	0xbdaca81e	-0.08430503
193	0x3d45c881	0.04828692
194	0xbd0dd0ed	-0.034623075
195	0xbba34683	-0.004982771
196	0x3d20c5d0	0.03925115
197	0xbd8f72ba	-0.07004304
198	0xbd9235a9	-0.07139141
199	0xbdc157ac	-0.0944055
200	0xbd56a706	-0.05240538
201	0xbc4974ae	-0.012295885
202	0x3d244ad4	0.040110424
203	0xbe308708	-0.1723901
204	0xbda48d17	-0.08034723
205	0xbd3bc7b5	-0.045844752
206	0x3b95b998	0.0045692436
207	0x39746b86	0.00023309709
208	0x3c34c85a	0.011034096
209	0x3dd35bd9	0.10320253
210	0xbc57e055	-0.0131760435
211	0x3db3f458	0.08786839
212	0xbcd4edd0	-0.025992304
213	0xbd4a8fd8	-0.049453586
214	0xbc71f28f	-0.014767303
215	0x3ca4ed26	0.020132612
216	0xbe00ce03	-0.12578587
217	0xbd1c9e76	-0.038237058
218	0xbd9b4949	-0.075823374
219	0x3dc85f31	0.09783781
220	0x3dcc5c67	0.09978562
221	0xbbdb26d2	-0.0066879774
222	0xbbccc480	-0.0062490106
223	0xbd868577	-0.06568425
224	0x3d565df8	0.05233571
225	0xbd68df93	-0.056853842
226	0x3dbdd470	0.09269035
227	0xbbaa7998	-0.0052024834
228	0xbdefe6c5	-0.11713938
229	0xbd326847	-0.043556478
230	0xbe280292	-0.1640723
231	0x3cd50f78	0.026008353
232	0x3d99b439	0.07505078
233	0x3da0e9e5	0.07857112
234	0x3e02f438	0.12788475
235	0x3d9ceda6	0.07662515
236	0x3d78a276	0.06070181
237	0xbe03e55b	-0.12880461
238	0xbd3970a3	-0.045273434
239	0x3d9a5230	0.07535207
240	0x3dd4d5a3	0.103923105
241	0x3d3065d6	0.04306587
242	0x3cd976e9	0.026545959
243	0x3d86ff4a	0.06591661
244	0xbd757aad	-0.059931446
245	0x3d7d0a3a	0.06177733
246	0xbe350239	-0.17676629
247	0x3dde2c03	0.10848238
248	0x3cb214f8	0.021738514
249	0xbc0ff90e	-0.008787407
250	0xbd9c1368	-0.07620889
251	0xbdef3896	-0.11680715
252	0x3cdf811a	0.02728324
253	0xbd8b8f4a	-0.068144396
254	0x3dbcfa44	0.09227422
255	0xbe1590f7	-0.14606081

hidden2.bias f4 [64]
0	0xbd2a9f12	-0.041655608
1	0x3e7cb8dd	0.24679895
2	0xbe07d391	-0.132643
3	0x3e5fcf19	0.21856345
4	0xbcc9c181	-0.024628403
5	0xbdc095c8	-0.094035685
6	0xbd15d883	-0.036583435
7	0xbc72071e	-0.014772205
8	0x3d1a4434	0.0376627
9	0xbd91036c	-0.07080731
10	0x3e1d2b93	0.15348653
11	0x3d9acb38	0.07558292
12	0x3e14c793	0.14529257
13	0x3de1b2ae	0.110204086
14	0x3ae1050c	0.0017167642
15	0x3ca7777a	0.020442713
16	0x3d8ea12f	0.06964337
17	0xbe31b15a	-0.1735281
18	0xbd751185	-0.05983116
19	0x3d877d0e	0.06615649
20	0xbd9948c8	-0.07484585
21	0x3c084a90	0.008318558
22	0xbd47a5c1	-0.04874206
23	0xbdadb106	-0.0848103
24	0x3c9f7e09	0.019469278
25	0x3e0acfec	0.13555878
26	0xbdfcc2cb	-0.12341841
27	0xbd63c6fd	-0.055609692
28	0xbd299c78	-0.041408986
29	0xbc9b6da6	-0.018973183
30	0x3cf87e03	0.030333525
31	0x3d1111fb	0.035417538
32	0x3cd64d76	0.026159983
33	0x3dc49967	0.09599572
34	0xbe5d8013	-0.21630888
35	0xbe0df4e4	-0.1386295
36	0x3dd411ba	0.103549436
37	0x3cdd7383	0.02703262
38	0xbd3e39a8	-0.046441704
39	0xbdcb064c	-0.099133104
40	0xbdfed132	-0.124422446
41	0xbd6c3523	-0.057667863
42	0x3c7bdf62	0.015373083
43	0xbd65ba80	-0.056086063
44	0xbbedf8fb	-0.007262347
45	0x3d26c4b2	0.040714927
46	0x3e829e94	0.2551161
47	0xbe9fb43d	-0.31192198
48	0x3bd6e2cf	0.0065577994
49	0x3d775409	0.060382877
50	0x3cd1dc03	0.025617605
51	0x3e3e9fe4	0.18615681
52	0xbcfa5ed4	-0.030562796
53	0x3dd88919	0.10573024
54	0x3d2b0bf4	0.041759446
55	0x3d9c08d9	0.07618875
56	0x3d851ca8	0.06499606
57	0xbe364bdf	-0.1780238
58	0xbd0dd0d8	-0.034622997
59	0x3dcb114a	0.09915407
60	0xbd2c59c3	-0.04207779
61	0xbdb4fcf5	-0.0883731
62	0x3e0a0de0	0.13481855
63	0x3d0f6e6b	0.035017412

hidden3.weight f4 [32, 64]
0	0x3d4fae7b	0.050703507
1	0x3cc1b73f	0.023646949
2	0xbb9cefc7	-0.004789326
3	0xbc2aca65	-0.010424231
4	0xbd2aa0f2	-0.041657396
5	0xbd681c51	-0.05666763
6	0x3de77fa0	0.113036394
7	0x3cc161bb	0.023606172
8	0x3d450beb	0.04810707
9	0x3c9ee667	0.019396974
10	0x3d28240c	0.041050002
11	0x3d7d2c60	0.061809897
12	0x3dabb92e	0.083849296
13	0xbd99437d	-0.074835755
14	0xbd3f8b73	-0.04676385
15	0x3d56fd78	0.05248782
16	0xbdb9cde8	-0.090724766
17	0x3d4e305a	0.05033908
18	0xbe0e75d5	-0.13912137
19	0xbd8f5095	-0.06997792
20	0xbdbed4e2	-0.09317948
21	0xbdb86a0b	-0.09004601
22	0x3dbe787a	0.09300323
23	0x3d7d9a68	0.06191483
24	0xbd24d95e	-0.04024636
25	0x3da3df81	0.08001614
26	0xbd858957	-0.06520336
27	0x3d961e18	0.07329959
28	0x3d59635e	0.05307328
29	0x3d431e17	0.047636118
30	0x3d3dee84	0.046370044
31	0xbd9de5e4	-0.07709864
32	0x3db50495	0.088387646
33	0xbd311e83	-0.04324199
34	0xbda7c508	-0.081918776
35	0xbdd7377b	-0.10508629
36	0xbde8548f	-0.11344253
37	0xbd9c5c42	-0.07634784
38	0xbdf1995b	-0.11796828
39	0x3d8a4b55	0.0675265
40	0xbcb66c5d	-0.022268469
41	0xbde23f11	-0.11047185
42	0xbcaeccd1	-0.021337898
43	0x3d10e4f8	0.03537461
44	0xbc230890	-0.009950772
45	0xbdf6186c	-0.12016377
46	0xbd0e6511	-0.034764353
47	0xbdd23fe4	-0.102660924
48	0x3d169d59	0.036771152
49	0xbca97929	-0.020687656
50	0x3c9f7a8a	0.01946761
51	0x3d62917c	0.055314526
52	0xbc8cee50	-0.01720348
53	0xbc5d3616	-0.013501665
54	0xbc215790	-0.009847537
55	0x3d1b912a	0.037980236
56	0x3d9fabf1	0.07796467
57	0x3d79aff4	0.060958818
58	0xbda08403	-0.07837679
59	0x3d96d0ff	0.073640816
60	0xbdf7090a	-0.12062271
61	0x3d8b69c0	0.068072796
62	0x3d7d3298	0.061815828
63	0xbce1e914	-0.02757696
64	0xbd8f655f	-0.07001757
65	0xbcf95623	-0.030436581
66	0xbddfbfc5	-0.10925249
67	0x3db600a8	0.08886844
68	0xbd00132c	-0.031268284
69	0x3daaad3a	0.083338216
70	0x3bf20ad7	0.007386546
71	0x3d010c9a	0.03150616
72	0xbdfc2682	-0.12312032
73	0xbcd373d9	-0.025812076
74	0x3d0185c6	0.031621717
75	0xbdd122de	-0.102117285
76	0xbd7c3368	-0.061572462
77	0x3c8e5e60	0.017378986
78	0x3d0fd400	0.03511429
79	0xbd1ba8c6	-0.03800275
80	0xbc8cf1a0	-0.01720506
81	0x3ceb33ae	0.028711166
82	0x3d7a707c	0.06114243
83	0xbdcd1c01	-0.10015107
84	0x3cad701d	0.021171624
85	0xbda517b6	-0.08061163
86	0x3daacca8	0.08339816
87	0xbd55c534	-0.05219002
88	0x3d83dcb4	0.0643858
89	0xbdfdc8a6	-0.12391786
90	0x3d9f0366	0.0776432
91	0xbdf1c4fd	-0.11805151
92	0xbbaf2a92	-0.005345651
93	0xbd7b55aa	-0.061360992
94	0x3dc2ff72	0.095213786
95	0xbd8f71bc	-0.07004115
96	0x3d1a0ff4	0.03761287
97	0xbd20cf1f	-0.039260026
98	0x3cb76c3d	0.02239048
99	0x3c9ffa4f	0.019528536
100	0xbdf297bd	-0.11845348
101	0x3da6cc6e	0.081444606
102	0xbdb94bac	-0.090476364
103	0x3d6edf11	0.0583182
104	0xbdd490bb	-0.10379168
105	0xbd71ad1d	-0.059002984
106	0x3dd4e451	0.103951104
107	0xbbf920b2	-0.0076027745
108	0x3df41618	0.119182765
109	0xbdfce346	-0.123480365
110	0xbd8fa4cf	-0.070138566
111	0xbda138ab	-0.07872137
112	0x3dfc0574	0.123057276
113	0x3d64a73b	0.055823546
114	0xbdc150f5	-0.094392695
115	0x3d2d8256	0.042360626
116	0x3d56345c	0.052296028
117	0x3d7fd3c2	0.062457807
118	0xbd408c7d	-0.04700898
119	0x3d3e56c3	0.04646946
120	0xbd5037f7	-0.050834622
121	0x3cd85e1e	0.026412066
122	0xbdddc591	-0.108286984
123	0x3d9a8093	0.07544055
124	0x3c834a48	0.016026631
125	0xbd9d6bde	-0.0768659
126	0xbc0365f6	-0.008019915
127	0xbdbe3953	-0.092882775
128	0xbdb96d47	-0.09054046
129	0x3e3619d8	0.17783296
130	0xbe47df30	-0.19518733
131	0x3e189779	0.14901532
132	0xbd237dab	-0.03991477
133	0x3dfbc4f3	0.122934245
134	0x3dc29444	0.09500936
135	0xbb6ca64e	-0.0036109868
136	0xbe0e5111	-0.13898112
137	0x3cd41037	0.025886638
138	0xbc63244a	-0.013863632
139	0xbdbeb059	-0.093109794
140	0xbcc109b2	-0.023564193
141	0xbdaa6506	-0.0832005
142	0x3dc113a8	0.09427577
143	0x3df0e93d	0.11763237
144	0xbd21f334	-0.039538577
145	0xbd78bd98	-0.060727686
146	0x3d41eed5	0.04734691
147	0xbc437087	-0.011928684
148	0x3c918c3b	0.017767062
149	0xbc1d2f0d	-0.009593737
150	0xbd900c7e	-0.07033633
151	0xbbbfde40	-0.0058553517
152	0xbc0025e8	-0.007821538
153	0x3ca4515e	0.02005833
154	0xbc2c126f	-0.010502442
155	0xbc995f01	-0.01872206
156	0x3dc82667	0.0977295
157	0x3deac1b0	0.11462724
158	0x3c05dad0	0.008169845
159	0xbda3cce1	-0.07998062
160	0x3d716c28	0.058941036
161	0xbcb6bb50	-0.022306114
162	0xbe0adfba	-0.13561907
163	0xbd3e15ae	-0.046407394
164	0x3e0a6854	0.1351636
165	0xbd3ae5ca	-0.0456293
166	0x3e008ad6	0.12552962
167	0xbd269663	-0.040670764
168	0xbbef063c	-0.0072944444
169	0x3cba8df3	0.022772765
170	0x3d4c93e5	0.04994573
171	0x3e1fef42	0.15618613
172	0x3dca0d62	0.09865834
173	0xbce87230	-0.028374761
174	0x3cb2dca8	0.021833733
175	0xbd4757d4	-0.048667744
176	0xbdc6efc2	-0.09713699
177	0xbc965db4	-0.018355228
178	0x3daf340d	0.0855485
179	0xbe19bd93	-0.15013723
180	0xbdb7a792	-0.089675084
181	0x3e0bbf09	0.13647093
182	0x3dbf1eff	0.09332084
183	0xbd8b287e	-0.06794833
184	0x3de4f1fa	0.11178966
185	0xbcec1b98	-0.028821751
186	0xbccea3e5	-0.025224635
187	0xbd043233	-0.032274436
188	0xbc5ffb70	-0.013670787
189	0xbd872e3d	-0.06600616
190	0x3de7a950	0.11311591
191	0xbd919d44	-0.07110074
192	0xbda0fb3f	-0.078604214
193	0xbdd469a8	-0.10371715
194	0xbdd3303f	-0.103119366
195	0x3e381d1b	0.17979853
196	0x3e2d788b	0.16940515
197	0x3c6780c0	0.0141298175
198	0x3cdff2b3	0.027337408
199	0xbd3c1ed7	-0.04592785
200	0x3c54cdbd	0.012988505
201	0xbd956301	-0.07294274
202	0x3d6dbbbb	0.05804036
203	0x3cd5d484	0.026102312
204	0x3d446b3f	0.04795384
205	0xbdbca4a3	-0.092110895
206	0x3de2b824	0.11070278
207	0x3d5664e5	0.052342314
208	0xbcc70610	-0.024294883
209	0xbcb2a2ff	-0.021806238
210	0xbdbe5187	-0.09292894
211	0x3cc0abef	0.023519484
212	0xbdc1dc4d	-0.09465847
213	0xbdc47a4c	-0.09593639
214	0xbc7220b0	-0.014778301
215	0xbc5ea110	-0.013588205
216	0x3df04f85	0.11733917
217	0x3e0889ce	0.13333818
218	0x3e394079	0.18091
219	0xbdc46503	-0.09589579
220	0xbc9d9a61	-0.019238653
221	0xbda17995	-0.07884518
222	0xbdd296bd	-0.10282657
223	0x3d3a4813	0.04547889
224	0xbcdde39f	-0.027086077
225	0x3e0b0e68	0.13579714
226	0x3e6e92f8	0.23298252
227	0xbe117763	-0.14205699
228	0x3e2bca3d	0.16776367
229	0x3c370e03	0.011172774
230	0xbde22322	-0.11041857
231	0x3d6152b0	0.055010498
232	0xbdc276e5	-0.094953336
233	0x3dbbe9f9	0.09175486
234	0x3d28a4b5	0.041172702
235	0xbd705f88	-0.058684856
236	0xbda2289d	-0.079179026
237	0xbd765a9c	-0.060145006
238	0x3cdaa8f4	0.026691891
239	0xbe522a81	-0.20524026
240	0x3d71a908	0.05899909
241	0xbc849082	-0.016182188
242	0x3d8eb1c4	0.069675
243	0x3e2670cc	0.16253966
244	0xbdc17772	-0.094466105
245	0x3e4541ab	0.19263332
246	0xbc93f0ed	-0.018059218
247	0xbd65cd71	-0.056104127
248	0xbc915140	-0.017738938
249	0xbc43d368	-0.011952259
250	0x3d043c07	0.03228381
251	0x3e0b2f7d	0.13592334
252	0xbdf98432	-0.121834174
253	0xbcc5c489	-0.024141567
254	0x3de28df6	0.11062233
255	0x3c9bc283	0.019013649

hidden3.bias f4 [32]
0	0x3d4e73f8	0.050403565
1	0xbdba7c65	-0.091057576
2	0x3e0b09ec	0.13578004
3	0x3e820455	0.2539393
4	0xbde1cc2c	-0.11025271
5	0xbe13ebba	-0.14445391
6	0x3e324785	0.17410095
7	0xbdbf9eac	-0.09356436
8	0x3dee0a36	0.11623041
9	0xbcbc6a7f	-0.023
10	0xbead999f	-0.33906266
11	0x3d98ee29	0.074673004
12	0x3c651240	0.013981402
13	0x3d0d9251	0.034563366
14	0xbdfdcd4a	-0.123926714
15	0x3e819fd0	0.2531724
16	0xbd9ca4b2	-0.07648601
17	0xba73de6e	-0.0009302859
18	0xbee89981	-0.45429614
19	0x3da9c169	0.08288843
20	0xbc2e9bb4	-0.01065724
21	0x3e3af4d6	0.1825746
22	0x3ddad4a3	0.106850885
23	0x3e26552f	0.16243432
24	0xbcdbc6dd	-0.026828224
25	0x3e3f5422	0.18684438
26	0xbd8092f0	-0.06278026
27	0x3d70eb20	0.058817983
28	0x3e05a199	0.13049926
29	0xbcf0e21f	-0.029404698
30	0x3e4ad2c0	0.19806957
31	0x3de5b366	0.11215858

hidden4.weight f4 [16, 32]
0	0xbe229bb8	-0.15879714
1	0xbd508758	-0.050910324
2	0x3e545099	0.2073387
3	0xbdc837e5	-0.09776286
4	0xbd64e505	-0.055882473
5	0x3e560656	0.20900854
6	0x3d6e29d7	0.05814537
7	0xbc3d760b	-0.011563788
8	0x3dd57a11	0.10423673
9	0xbe1be4bb	-0.15223972
10	0x3e44febd	0.192378
11	0xbde2f6c8	-0.11082226
12	0xbe0c8fc6	-0.1372672
13	0x3e09d646	0.13460645
14	0x3d7eb688	0.062185794
15	0xbc836b85	-0.01604248
16	0x3dce9e70	0.10088813
17	0xbe23f143	-0.16010003
18	0x3e17d985	0.14829071
19	0xbe23e08a	-0.16003624
20	0xbd0d3ac1	-0.03447986
21	0xbe107b4e	-0.14109537
22	0x3c91d0d3	0.01779977
23	0xbe38f7e5	-0.18063314
24	0xbd2c94b6	-0.04213401
25	0x3de442c9	0.11145551
26	0x3dd6a2de	0.10480283
27	0xbc6f4dc1	-0.01460594
28	0x3dd7bf74	0.10534564
29	0xbcf61b58	-0.030042335
30	0xbd841629	-0.06449539
31	0xbe1feac3	-0.15616898
32	0x3d8e9ff3	0.06964102
33	0xbd0cb04d	-0.03434782
34	0xbdabeb50	-0.08394492
35	0xbce6ce8e	-0.028174665
36	0xbd9d1b19	-0.07671184
37	0x3e2b470b	0.1672632
38	0x3db5fd10	0.088861585
39	0xbe354446	-0.17701825
40	0xbdef10b9	-0.116731115
41	0x3e2f4a55	0.17118199
42	0xbde34dd8	-0.11098832
43	0xbe247d57	-0.16063438
44	0x3debfa96	0.11522405
45	0x3e046d29	0.12932266
46	0x3cc6e630	0.024279684
47	0x3d4e3d9e	0.05035173
48	0x3e232c8f	0.15934967
49	0xbd16bc26	-0.036800526
50	0x3e0116d1	0.1260636
51	0xbe1e0b69	-0.1543404
52	0xbd9e0a53	-0.07716813
53	0xbe2f6564	-0.17128521
54	0x3e2982eb	0.16553847
55	0xbc5383c6	-0.012909835
56	0x3e18f269	0.14936222
57	0x3c131776	0.0089777615
58	0x3e1523fe	0.14564511
59	0xbda75d78	-0.081721246
60	0xbd4c6be0	-0.049907565
61	0xbd8d81a4	-0.069094926
62	0xbe185797	-0.14877163
63	0xbe299456	-0.16560492
64	0xbd1dca08	-0.03852275
65	0x3d272e10	0.040815413
66	0xbdecc9e2	-0.115619436
67	0xbe89f83e	-0.26947206
68	0xbe3bce4d	-0.18340416
69	0xbdf26ca8	-0.11837131
70	0xbe5d8654	-0.21633273
71	0xbe22574e	-0.15853617
72	0xbd886c0a	-0.06661232
73	0xbd2d5a18	-0.04232225
74	0xbed79b47	-0.42110655
75	0xbe485166	-0.19562301
76	0x3ccf93e8	0.025339082
77	0x3e70d198	0.23517454
78	0xbdfc9b78	-0.12334341
79	0x3d1b2aa6	0.03788247
80	0xbd13a2e1	-0.036044005
81	0xbda3e56e	-0.080027446
82	0xbcc6ef39	-0.024283992
83	0x3e62e8ff	0.22159193
84	0xbe31190c	-0.17294711
85	0xbe221a23	-0.15830283
86	0xbc6d90aa	-0.014499823
87	0x3c5d36d8	0.013501845
88	0x3ddd807d	0.10815523
89	0x3d50cd46	0.050977014
90	0xbe25f2dd	-0.16205926
91	0x3d2c2968	0.042031676
92	0x3e894499	0.26810148
93	0x3dcf721e	0.10129188
94	0x3e92e77b	0.2869223
95	0x3b810d28	0.003938336
96	0xbd89d6d6	-0.0673043
97	0xbe28e72d	-0.16494437
98	0xbd88a2ad	-0.06671653
99	0x3ddb06e2	0.10694672
100	0xbe444a61	-0.19168998
101	0xbe6ebcab	-0.23314159
102	0x3e1542ea	0.14576307
103	0xbd9aea38	-0.07564205
104	0x3c079857	0.008276067
105	0x3d683d60	0.056699157
106	0x3b33d701	0.0027441385
107	0x3d80e202	0.062931076
108	0xbdec34a2	-0.115334764
109	0xbd5c25ec	-0.053747103
110	0xbe194847	-0.14968978
111	0x3e0bef3a	0.13665476
112	0x3c48f241	0.012264789
113	0xbc54da11	-0.012991444
114	0xbe04509a	-0.12921372
115	0x3de78f81	0.11306668
116	0xbd9c70f8	-0.076387346
117	0xbda748a3	-0.08168151
118	0x3dfe4c0a	0.12416847
119	0xbdb37755	-0.08762995
120	0x3e08fb4f	0.13377117
121	0x3e2b854d	0.16750069
122	0xbe474e8b	-0.19463556
123	0x3e21d9c1	0.15805723
124	0x3d966a81	0.07344533
125	0xbdab29d9	-0.08357591
126	0x3e0d8b81	0.13822748
127	0x3e2fbfec	0.17163056
128	0x3d10036b	0.03515951
129	0x3defddc6	0.11712222
130	0x3dcaa98a	0.09895618
131	0x3dc980cd	0.0983902
132	0x3de249f2	0.1104926
133	0xbd9a7093	-0.07541003
134	0xbdb2584f	-0.0870825
135	0xbdb7dcc7	-0.08977657
136	0xbca3618e	-0.019943979
137	0xbdd0e3c4	-0.10199693
138	0x3e0f861c	0.14016002
139	0xbdc7734c	-0.09738788
140	0x3dd2402a	0.102661446
141	0x3e3a43d7	0.18189941
142	0xbcb65f58	-0.02226226
143	0xbc2d3c11	-0.010573403
144	0x3c2c8928	0.0105307475
145	0xbdd76a55	-0.10518328
146	0xbd12cce9	-0.03583995
147	0x3d5be539	0.0536854
148	0xbdf97064	-0.1217964
149	0xbe31b276	-0.17353234
150	0xbc0eb988	-0.008711226
151	0xbd950840	-0.07276964
152	0xbd00ec06	-0.03147509
153	0xbe0b3e78	-0.13598049
154	0x39f05fc9	0.00045847733
155	0xbcdcd8c6	-0.026958834
156	0xbe1acb1f	-0.15116547
157	0x3ddaf6af	0.106915824
158	0x398dd3b6	0.00027051353
159	0x3e248b74	0.16068822
160	0xbdca83d3	-0.09888425
161	0xbda7e093	-0.08197131
162	0xbe698026	-0.22802791
163	0x3d46140c	0.048358962
164	0x3e38d349	0.18049349
165	0x3dc9e6bc	0.09858462
166	0x3de15107	0.11001783
167	0xbc732a46	-0.014841622
168	0xbe04bec9	-0.12963404
169	0xbd837811	-0.06419385
170	0x3e60c85f	0.21951436
171	0x3df38c48	0.11891991
172	0xbdaa0d56	-0.08303325
173	0x3e128982	0.14310268
174	0x3df7eb0a	0.12105377
175	0x3e7ddc5b	0.2479109
176	0xbd02b1dd	-0.031907905
177	0x3d32b44b	0.043628972
178	0x3e8293d5	0.25503412
179	0xbd85f1fa	-0.06540294
180	0xbe3a6798	-0.1820358
181	0xbe7a0415	-0.2441562
182	0xbdea9965	-0.11455039
183	0xbd08e8e8	-0.03342524
184	0xbe069390	-0.13142228
185	0x3d662d11	0.056195322
186	0x3d9f5d7e	0.07781504
187	0xbdf1a538	-0.11799091
188	0xbd09d0d1	-0.03364641
189	0x3e2cf85c	0.16891617
190	0x3d540c24	0.05176939
191	0xbdd115bd	-0.102092244
192	0xbdf77ac1	-0.1208396
193	0xbca97d52	-0.02068964
194	0xbe04ed54	-0.12981158
195	0x3e9a3beb	0.3012384
196	0xbea1e0eb	-0.3161691
197	0xbebeca9b	-0.3726395
198	0x3e955706	0.29167956
199	0xbeaae55b	-0.3337811
200	0xbeae987a	-0.34100705
201	0x3db6ba56	0.089222595
202	0x3ea11da1	0.31467918
203	0x3eb0901c	0.34484947
204	0xbdf9cbcc	-0.12197074
205	0x3de1f3c4	0.11032823
206	0xbdc731ae	-0.097262725
207	0x3ec46cad	0.38364163
208	0xbe99f6df	-0.3007116
209	0xbdac2e0b	-0.084072195
210	0xbf404840	-0.75110245
211	0xbe75bb4d	-0.23997231
212	0xbd1ccd2d	-0.03828161
213	0xbe5056cc	-0.2034561
214	0x3e7fbc1b	0.249741
215	0x3e440753	0.19143419
216	0xbde5dab0	-0.11223352
217	0x3e25575d	0.16146608
218	0xbe2918a6	-0.16513309
219	0x3e260236	0.16211781
220	0x3e0f1abc	0.13975042
221	0x3df69281	0.12039662
222	0x3e126176	0.14294991
223	0x3de918f6	0.11381714
224	0xbdd7cded	-0.10537324
225	0x3e2af927	0.16696607
226	0xbce6b02c	-0.028160177
227	0xbcbfdd97	-0.023421092
228	0xbd068ff0	-0.032852113
229	0xbc843a18	-0.016140983
230	0xbdf72ae0	-0.12068725
231	0xbe074d0e	-0.13212988
232	0x3dd95ade	0.10613035
233	0xbcaf4b57	-0.02139823
234	0x3c732760	0.014840931
235	0xbdc1bc93	-0.09459796
236	0x3cf0f478	0.029413447
237	0x3daa75ae	0.08323227
238	0xbe19a1f2	-0.15003183
239	0x3dce0adf	0.10060667
240	0xbd4a68e0	-0.049416423
241	0xbc1547ff	-0.0091114035
242	0x3cbce9b8	0.023060665
243	0xbdcf93e6	-0.10135631
244	0xbd868361	-0.06568027
245	0x3d02faa2	0.031977303
246	0xbe2e2177	-0.17004953
247	0x3dfb9c41	0.122856624
248	0x3dce268d	0.10065947
249	0xbcd2b109	-0.025719183
250	0x3c94a678	0.018145785
251	0xbdcd7c82	-0.100335136
252	0xbd8fb40f	-0.07016765
253	0xbdb4327f	-0.08798694
254	0xbcf1360b	-0.029444715
255	0xbd42940b	-0.047504466

hidden4.bias f4 [16]
0	0xbe244634	-0.16042405
1	0x3e19d5c9	0.15022959
2	0x3d687eb2	0.05676145
3	0x3e109356	0.14118704
4	0xbe4d07c1	-0.20022489
5	0xbe9bb020	-0.3040781
6	0x3e91a806	0.28448504
7	0xbcfc823d	-0.030823821
8	0x3e8ba213	0.2727209
9	0xbeab204f	-0.33423087
10	0xbd0cae48	-0.034345895
11	0x3e80933a	0.25112325
12	0xbdd1e51e	-0.10248779
13	0xbe8bb1ef	-0.2728419
14	0x3d9a3702	0.07530023
15	0xbdfdb99f	-0.1238892

output.weight f4 [1, 16]
0	0xbef15ade	-0.4713964
1	0x3d59c717	0.053168382
2	0xbf283697	-0.657083
3	0x3eece7d1	0.46270612
4	0x3e46d3fa	0.194168
5	0x3f12f736	0.57408464
6	0x3fa6cfd4	1.3032174
7	0xbdcbec86	-0.09957223
8	0xbf15ecce	-0.5856446
9	0x3f0ae963	0.5426237
10	0x3e8c4a66	0.27400512
11	0xbf6e4a63	-0.93082255
12	0xbedcb33c	-0.43105495
13	0xbf03cb09	-0.5148168
14	0x3d9d9b44	0.0769563
15	0xbe5a2b6f	-0.21305631
