Lab 7 - Neural Networks/example/myNet.pt (torch, 1631 bytes, 3 tensors)

hidden.weight f4 [10, 1]
000000 35 7d 20 3e 04 2f 88 3f 08 2f 58 bf e9 d6 6b 3f
       0.15672763 1.0639348 -0.84446764 0.921248
000010 af 27 51 bf 84 58 f4 be 46 16 65 bf 1d 2f 81 be
       -0.8170118 -0.47723782 -0.8948711 -0.25231257
000020 70 4f 66 3e 68 5f 08 3e
       0.2249124 0.13317645

hidden.bias f4 [10]
000000 5c b6 ec 3e 38 e4 3c 3d 8b 73 46 3e 7d c9 f2 be
       0.4623288 0.046116084 0.19380014 -0.47419348
000010 1d 6d 9a be 26 a6 7c bf 90 8e 1a bf 55 fb 38 3e
       -0.30161372 -0.9869102 -0.60373783 0.18064626
000020 f8 3d 86 be bf ad c9 3e
       -0.26219153 0.3939037

output.weight f4 [1, 10]
000000 e6 b7 14 be 5e 2c 2a 3f 9a 67 f3 3e a8 67 4d 3f
       -0.14523277 0.6647395 0.4753998 0.8023629
000010 e9 ee 36 3f 06 fe 20 be 60 cb 38 3f b4 65 e9 3d
       0.714583 -0.15721902 0.72185326 0.113963515
000020 34 5c 7c be 7e 27 63 3d
       -0.24644548 0.055457585
